…
epochs    : 300
model     : solution
timestamp : 20171021_143916
input shape      : (1200, 1200)
subdivided shape : (256, 75, 75)
normalized shape : (256, 75, 75)
X shape          : (4096, 75, 75, 1)
y shape          : (4096,)
train data      X: (3072, 75, 75, 1) y: (3072, 256)
validation data X: (256, 75, 75, 1) y: (256, 256)
test data       X: (256, 75, 75, 1) y: (256, 256)
_________________________________________________________________
Layer (type)                 Output Shape              Param #   
=================================================================
conv2d_1 (Conv2D)            (None, 75, 75, 32)        320       
_________________________________________________________________
dropout_1 (Dropout)          (None, 75, 75, 32)        0         
_________________________________________________________________
max_pooling2d_1 (MaxPooling2 (None, 37, 37, 32)        0         
_________________________________________________________________
conv2d_2 (Conv2D)            (None, 37, 37, 32)        9248      
_________________________________________________________________
dropout_2 (Dropout)          (None, 37, 37, 32)        0         
_________________________________________________________________
max_pooling2d_2 (MaxPooling2 (None, 18, 18, 32)        0         
_________________________________________________________________
global_average_pooling2d_1 ( (None, 32)                0         
_________________________________________________________________
dense_1 (Dense)              (None, 256)               8448      
=================================================================
Total params: 18,016
Trainable params: 18,016
Non-trainable params: 0
_________________________________________________________________
<<START>>
..................................................
..................................................
..................................................
..................................................
…
