…
augments  : 15
epochs    : 300
model     : model1
input shape      : (3600, 3600)
subdivided shape : (256, 225, 225)
normalized shape : (256, 225, 225)
X shape          : (4096, 225, 225, 1)
y shape          : (4096,)
model init
train data      X: (3072, 225, 225, 1) y: (3072, 256)
validation data X: (256, 225, 225, 1) y: (256, 256)
test data       X: (256, 225, 225, 1) y: (256, 256)
_________________________________________________________________
Layer (type)                 Output Shape              Param #
=================================================================
conv2d_1 (Conv2D)            (None, 225, 225, 32)      320
_________________________________________________________________
dropout_1 (Dropout)          (None, 225, 225, 32)      0
_________________________________________________________________
max_pooling2d_1 (MaxPooling2 (None, 112, 112, 32)      0
_________________________________________________________________
conv2d_2 (Conv2D)            (None, 112, 112, 32)      9248
_________________________________________________________________
dropout_2 (Dropout)          (None, 112, 112, 32)      0
_________________________________________________________________
max_pooling2d_2 (MaxPooling2 (None, 56, 56, 32)        0
_________________________________________________________________
global_average_pooling2d_1 ( (None, 32)                0
_________________________________________________________________
dense_1 (Dense)              (None, 256)               8448
=================================================================
Total params: 18,016
Trainable params: 18,016
Non-trainable params: 0
_________________________________________________________________
2017-10-22 15:30:11.586477: I tensorflow/stream_executor/cuda/cuda_gpu_executor.cc:893] successful NUMA node read from SysFS had negative value (-1), but there must be at least one NUMA node, so returning NUMA node zero
…
